输出信息:
Called with args:
Namespace(batch_size=32, checkepoch=1, crop_size=32, cuda=True, decay_step=10,
lr=0.001, max_epochs=40, num_workers=0, resume=False, save_dir='')

net:
SimpleNet(
  (head_net): Sequential(
    (0): NetUnit(
      (conv): Conv2d (3, 32, kernel_size=(3, 3), stride=(1, 1), padding=(1, 1))
      (norm): BatchNorm2d(32, eps=1e-05, momentum=0.1, affine=True)
      (relu): ReLU()
    )
    (1): NetUnit(
      (conv): Conv2d (32, 32, kernel_size=(3, 3), stride=(1, 1), padding=(1, 1))
      (norm): BatchNorm2d(32, eps=1e-05, momentum=0.1, affine=True)
      (relu): ReLU()
    )
    (2): NetUnit(
      (conv): Conv2d (32, 32, kernel_size=(3, 3), stride=(1, 1), padding=(1, 1))
      (norm): BatchNorm2d(32, eps=1e-05, momentum=0.1, affine=True)
      (relu): ReLU()
    )
    (3): MaxPool2d(kernel_size=(2, 2), stride=(2, 2), dilation=(1, 1))
    (4): NetUnit(
      (conv): Conv2d (32, 64, kernel_size=(3, 3), stride=(1, 1), padding=(1, 1))
      (norm): BatchNorm2d(64, eps=1e-05, momentum=0.1, affine=True)
      (relu): ReLU()
    )
    (5): NetUnit(
      (conv): Conv2d (64, 64, kernel_size=(3, 3), stride=(1, 1), padding=(1, 1))
      (norm): BatchNorm2d(64, eps=1e-05, momentum=0.1, affine=True)
      (relu): ReLU()
    )
    (6): NetUnit(
      (conv): Conv2d (64, 64, kernel_size=(3, 3), stride=(1, 1), padding=(1, 1))
      (norm): BatchNorm2d(64, eps=1e-05, momentum=0.1, affine=True)
      (relu): ReLU()
    )
    (7): NetUnit(
      (conv): Conv2d (64, 64, kernel_size=(3, 3), stride=(1, 1), padding=(1, 1))
      (norm): BatchNorm2d(64, eps=1e-05, momentum=0.1, affine=True)
      (relu): ReLU()
    )
    (8): MaxPool2d(kernel_size=(2, 2), stride=(2, 2), dilation=(1, 1))
    (9): NetUnit(
      (conv): Conv2d (64, 128, kernel_size=(3, 3), stride=(1, 1), padding=(1, 1))
      (norm): BatchNorm2d(128, eps=1e-05, momentum=0.1, affine=True)
      (relu): ReLU()
    )
    (10): NetUnit(
      (conv): Conv2d (128, 128, kernel_size=(3, 3), stride=(1, 1), padding=(1, 1))
      (norm): BatchNorm2d(128, eps=1e-05, momentum=0.1, affine=True)
      (relu): ReLU()
    )
    (11): NetUnit(
      (conv): Conv2d (128, 128, kernel_size=(3, 3), stride=(1, 1), padding=(1, 1))
      (norm): BatchNorm2d(128, eps=1e-05, momentum=0.1, affine=True)
      (relu): ReLU()
    )
    (12): NetUnit(
      (conv): Conv2d (128, 128, kernel_size=(3, 3), stride=(1, 1), padding=(1, 1))
      (norm): BatchNorm2d(128, eps=1e-05, momentum=0.1, affine=True)
      (relu): ReLU()
    )
    (13): MaxPool2d(kernel_size=(2, 2), stride=(2, 2), dilation=(1, 1))
    (14): NetUnit(
      (conv): Conv2d (128, 128, kernel_size=(3, 3), stride=(1, 1), padding=(1, 1))
      (norm): BatchNorm2d(128, eps=1e-05, momentum=0.1, affine=True)
      (relu): ReLU()
    )
    (15): NetUnit(
      (conv): Conv2d (128, 128, kernel_size=(3, 3), stride=(1, 1), padding=(1, 1))
      (norm): BatchNorm2d(128, eps=1e-05, momentum=0.1, affine=True)
      (relu): ReLU()
    )
    (16): NetUnit(
      (conv): Conv2d (128, 128, kernel_size=(3, 3), stride=(1, 1), padding=(1, 1))
      (norm): BatchNorm2d(128, eps=1e-05, momentum=0.1, affine=True)
      (relu): ReLU()
    )
    (17): AvgPool2d(kernel_size=4, stride=4, padding=0, ceil_mode=False, count_include_pad=True)
  )
  (fc): Linear(in_features=128, out_features=10)
)

--对应inputs=Variable(inputs.cuda())
--分别是32张图片的索引、3通道、x、y(其中每个像素的值都已经归一化到-1,1之间)
inputs: Variable containing:
(0 ,0 ,.,.) =
 -1.0000  0.6471  0.6627  ...  -0.0980 -0.3490 -0.4039
 -1.0000  0.6706  0.6863  ...  -0.0902 -0.4118 -0.3725
 -1.0000  0.7098  0.7412  ...   0.1608 -0.0902 -0.3098
           ...                           ...
 -1.0000 -1.0000 -1.0000  ...  -1.0000 -1.0000 -1.0000
…
